

layer     filters    size              input                output
   0 conv     16  3 x 3 / 1   416 x 416 x   3   ->   416 x 416 x  16 0.150 BF
   1 max          2 x 2 / 2   416 x 416 x  16   ->   208 x 208 x  16 0.003 BF
   2 conv     32  3 x 3 / 1   208 x 208 x  16   ->   208 x 208 x  32 0.399 BF
   3 max          2 x 2 / 2   208 x 208 x  32   ->   104 x 104 x  32 0.001 BF
   4 conv     64  3 x 3 / 1   104 x 104 x  32   ->   104 x 104 x  64 0.399 BF
   5 max          2 x 2 / 2   104 x 104 x  64   ->    52 x  52 x  64 0.001 BF
   6 conv    128  3 x 3 / 1    52 x  52 x  64   ->    52 x  52 x 128 0.399 BF
   7 max          2 x 2 / 2    52 x  52 x 128   ->    26 x  26 x 128 0.000 BF
   8 conv    256  3 x 3 / 1    26 x  26 x 128   ->    26 x  26 x 256 0.399 BF
   9 max          2 x 2 / 2    26 x  26 x 256   ->    13 x  13 x 256 0.000 BF
  10 conv    512  3 x 3 / 1    13 x  13 x 256   ->    13 x  13 x 512 0.399 BF
  11 max          2 x 2 / 1    13 x  13 x 512   ->    13 x  13 x 512 0.000 BF
  12 conv   1024  3 x 3 / 1    13 x  13 x 512   ->    13 x  13 x1024 1.595 BF
  13 conv    256  1 x 1 / 1    13 x  13 x1024   ->    13 x  13 x 256 0.089 BF
  14 conv    512  3 x 3 / 1    13 x  13 x 256   ->    13 x  13 x 512 0.399 BF
  15 conv     18  1 x 1 / 1    13 x  13 x 512   ->    13 x  13 x  18 0.003 BF
  16 yolo
  17 route  13
  18 conv    128  1 x 1 / 1    13 x  13 x 256   ->    13 x  13 x 128 0.011 BF
  19 upsample            2x    13 x  13 x 128   ->    26 x  26 x 128
  20 route  19 8
  21 conv    256  3 x 3 / 1    26 x  26 x 384   ->    26 x  26 x 256 1.196 BF
  22 conv     18  1 x 1 / 1    26 x  26 x 256   ->    26 x  26 x  18 0.006 BF
  23 yolo
Total BFLOPS 5.448 
 Allocate additional workspace_size = 24.92 MB 
Loading weights from backup/yolo3-tiny-onlab_0512_last.weights...
 seen 64 
Done!
    0     1     1	RPs/Img: 10.00	IOU: 81.59%	Recall:100.00%
    1     1     3	RPs/Img: 7.50	IOU: 55.71%	Recall:33.33%
    2     2     4	RPs/Img: 30.33	IOU: 60.73%	Recall:50.00%
    3     5     7	RPs/Img: 45.00	IOU: 64.00%	Recall:71.43%
…
