

layer     filters    size              input                output
   0 conv     16  3 x 3 / 1   416 x 416 x   3   ->   416 x 416 x  16 0.150 BF
   1 max          2 x 2 / 2   416 x 416 x  16   ->   208 x 208 x  16 0.003 BF
   2 conv     32  3 x 3 / 1   208 x 208 x  16   ->   208 x 208 x  32 0.399 BF
   3 max          2 x 2 / 2   208 x 208 x  32   ->   104 x 104 x  32 0.001 BF
   4 conv     64  3 x 3 / 1   104 x 104 x  32   ->   104 x 104 x  64 0.399 BF
   5 max          2 x 2 / 2   104 x 104 x  64   ->    52 x  52 x  64 0.001 BF
   6 dropout       p = 0.15               173056  ->  173056
   7 conv    128  3 x 3 / 1    52 x  52 x  64   ->    52 x  52 x 128 0.399 BF
   8 max          2 x 2 / 2    52 x  52 x 128   ->    26 x  26 x 128 0.000 BF
   9 conv    256  3 x 3 / 1    26 x  26 x 128   ->    26 x  26 x 256 0.399 BF
  10 max          2 x 2 / 2    26 x  26 x 256   ->    13 x  13 x 256 0.000 BF
  11 conv    512  3 x 3 / 1    13 x  13 x 256   ->    13 x  13 x 512 0.399 BF
  12 max          2 x 2 / 1    13 x  13 x 512   ->    13 x  13 x 512 0.000 BF
  13 dropout       p = 0.15               86528  ->  86528
  14 conv   1024  3 x 3 / 1    13 x  13 x 512   ->    13 x  13 x1024 1.595 BF
  15 conv    256  1 x 1 / 1    13 x  13 x1024   ->    13 x  13 x 256 0.089 BF
  16 conv    512  3 x 3 / 1    13 x  13 x 256   ->    13 x  13 x 512 0.399 BF
  17 conv     18  1 x 1 / 1    13 x  13 x 512   ->    13 x  13 x  18 0.003 BF
  18 yolo
  19 route  15
  20 conv    128  1 x 1 / 1    13 x  13 x 256   ->    13 x  13 x 128 0.011 BF
  21 upsample            2x    13 x  13 x 128   ->    26 x  26 x 128
  22 route  21 8
  23 conv    256  3 x 3 / 1    26 x  26 x 256   ->    26 x  26 x 256 0.797 BF
  24 conv     18  1 x 1 / 1    26 x  26 x 256   ->    26 x  26 x  18 0.006 BF
  25 yolo
Total BFLOPS 5.049 
 Allocate additional workspace_size = 24.92 MB 
Loading weights from backup/yolo3-tiny-onlab_0514_last.weights...
 seen 64 
Done!
    0     1     1	RPs/Img: 6.00	IOU: 63.99%	Recall:100.00%
    1     3     3	RPs/Img: 11.50	IOU: 67.77%	Recall:100.00%
    2     4     4	RPs/Img: 37.67	IOU: 66.13%	Recall:100.00%
    3     6     7	RPs/Img: 41.25	IOU: 66.79%	Recall:85.71%
…
